dummy-main/data.pth (torch, 5015 bytes, 6 tensors)

l1.weight f4 [8, 54]
00000000: 73b7 94be b677 46bd 9a96 dbbd cccf fe3d
00000010: 6c6d 033e 4740 04be 42ae 57bd 221f 43bd
00000020: 7a84 72bd 8c09 72bd fed6 8d3d ccfb 70bd
00000030: 68e1 a63d a09c cebb c4bb bebd c086 f9bd
00000040: 284d a83c 661d 813d a2ff 6ebd 7c07 ec3d
00000050: 12dd cc3d a874 c6bd 34cf 2f3d c1fd 05be
00000060: 5c87 7cbd 4e00 3cbd 4a9b e73d c2b0 9e3d
00000070: fa37 ca3d f081 d9bd da48 803d 60f0 723d
00000080: 9064 ff3c 0008 84bd ece6 ad3d 0a7d 083e
00000090: 549c a93d b621 41bd 989b d13c 08bf 7bbd
000000a0: d89b 953d 3d28 d5bd 707b d8bd 801a b33d
000000b0: 8aa8 a2bd 00c7 8d3d 28af a4bd 88f4 ff3d
000000c0: 1855 d2bc 22ab d53d 8c5d d93d 4e74 d33d
000000d0: 909a 033d 48a6 c6bd 003e b9be 92fb 49bd
000000e0: 007a 35ba b05c 08be 0e06 09bd 709a d43c
000000f0: 5836 d9bc 02a7 b3bd 8c7c c9bd d8d5 22bd
00000100: 37f7 08be 94a0 63bd 5ab3 a23d c063 b0bd
00000110: 1078 063e e717 82bd fc41 a3bd b034 c73d
00000120: 9021 9ebc 28fe af3c a803 86bc f0cf f33c
00000130: ee83 04be f0a8 1cbd c8fb c83d ec57 67bd
00000140: ec8f a5bd 16f8 40bd 7028 723c aad6 61bd
00000150: f46b c1bc 1c51 f1bd 880d 873c 5e26 073e
00000160: d4d0 ffbd 40a0 743d 48fa 3a3d 00cc 02ba
00000170: 4e40 073e 5fa1 efbd 64f0 063e 30d4 2a3c
00000180: 4c8c adbc 80ce 623c 90f0 68bc 4003 83bd
00000190: d23c 11bd c460 aabd 968c ce3d 78e3 863d
000001a0: 90a2 ab3c e83b 5abc bcb6 5a3d 289b f3bc
000001b0: 70a3 cebd 2c1f c93d 1493 4c3d 5ac9 d7bd
000001c0: 4440 693d 021d 8dbd 002c 3a39 f1cb 81bd
000001d0: e02e 073c 2421 2e3d 8db6 b5bd 7c0f 8abd
000001e0: 9236 be3d 982a 00bd 1895 debc f28b c73d
000001f0: 6026 313c 2f68 01be 2c5b f03d e874 af3c
00000200: 18ac de3c 1f54 eebd b8f4 503d 60a0 24bc
00000210: c479 a2bd 7d99 00be 0ccc 9fbc 40f2 5e3d
00000220: 908e 16bc f4fa edbd d499 0abe 8b46 80bd
00000230: e655 a93d 4063 b53c 8abb e13d 4273 e83d
00000240: c0d8 b93b e20a f4bd 3832 833d 78d9 453d
00000250: c817 a0bc be2d 093e 003e b33c fa78 9c3d
00000260: 9404 f73d 2846 413d 9088 5f3c face a23d
00000270: e75c d5bd 0020 f3ba 40af ccbc 4c23 cebd
00000280: b8c5 b63c 6cfe 773d ae8a f2bd ce15 b83d
00000290: ccfb 5ebd 989e b83d 006e 973d 4458 6bbd
000002a0: 49bd 94bd 1076 f43c 9876 fdbd 4e41 db3d
000002b0: f03a 513c 74f0 e03d d8c6 8dbc 22f4 fabd
000002c0: ca70 37bd 9c87 b83d 4ee0 a23d 4894 7b3d
000002d0: ee5a 08be 7037 d93c 540b fabd 84df 57bd
000002e0: 401f e13d 80ac f93c e4e8 ff3d 07b0 c7bd
000002f0: 0061 76bd 240e 0f3d 809e fb3d 10ca 663c
00000300: 9854 743d 204c 59bc 08c5 d1bd ac2a 9dbd
00000310: 7a43 873d d004 5c3c 0ec3 e33d 2c2a 57bd
00000320: 48c2 c4bc 485f ab3c e656 8e3d fcde 6dbd
00000330: 7302 c3bd 00dc b43b 7ce4 00bd 6ab4 b5bd
00000340: c00e 713d 88a6 c83d 082d fe3c 00a4 b63a
00000350: 601e 1f3c ba5b a5bd a02f abbd 48ba dabc
00000360: 0f5b bdbe a068 a03b 583d 9f3c 66ca 02be
00000370: 64a5 213d 40dc 7a3c ecd6 193d 1893 343d
00000380: 90e4 b43d 2805 ebbc 2a91 06be c83f aa3c
00000390: b880 36bd a5bf 07be 9cc2 58bd 2033 c23c
000003a0: 2248 aabd 4057 dcbb e4cd e03d f8db 16bd
000003b0: d43a 843d 806c 6a3d 00c6 92ba fc53 9c3d
000003c0: a4c1 71bd 5201 70bd 7490 983d 9491 b73d
000003d0: 50ed fc3d fe46 e83d e407 1abd b024 123c
000003e0: c053 b63b dc53 1e3d c886 56bc 4850 0b3e
000003f0: dc6d 0e3d 7fee fcbd d26c 03be f083 2e3d
-0.2904621 -0.04845401 -0.10722084 0.12441978 0.1283471 -0.12915145 -0.05265642 -0.047637112
-0.05920837 -0.059091136 0.06925772 -0.058833882 0.081484616 -0.0063052922 -0.09313157 -0.12183905
0.020544603 0.063044354 -0.05834926 0.11524865 0.10003103 -0.09690219 0.042922214 -0.1308508
-0.061652526 -0.045898728 0.11308916 0.077485576 0.09873958 -0.10620487 0.06263895 0.05931127
0.031175882 -0.064468384 0.084913105 0.13328949 0.0828177 -0.04715129 0.025586888 -0.06146148
0.073051155 -0.104080655 -0.10570419 0.08745289 -0.079423025 0.06922722 -0.08041221 0.124978125
-0.025675341 0.104330316 0.10613546 0.10324918 0.032129824 -0.096996844 -0.36180115 -0.04931218
-0.00069227815 -0.13316607 -0.03345304 0.025952548 -0.026515171 -0.087720886 -0.098382086 -0.03975472
-0.13375555 -0.05557306 0.07944365 -0.08612776 0.13131738 -0.06352215 -0.0797157 0.09726846
-0.019303113 0.021483496 -0.016359165 0.029762238 -0.12940952 -0.03824705 0.098136485 -0.056480333
-0.080840915 -0.047111593 0.014780149 -0.05513636 -0.023611046 -0.117830485 0.016485944 0.1319823
-0.12491003 0.05972314 0.045648843 -0.0004989505 0.13208124 -0.11700701 0.13177639 0.010426566
-0.021185063 0.013843179 -0.014217511 -0.06397104 -0.035458393 -0.08319238 0.100854084 0.06586355
0.02095154 -0.013319947 0.053396925 -0.02973707 -0.10089767 0.09820399 0.049944952 -0.10536452
0.056946054 -0.068902984 0.00017754734 -0.06337727 0.008250922 0.042512074 -0.088727094 -0.06741235
0.09287752 -0.03129062 -0.027170703 0.09743489 0.010812372 -0.12637399 0.1173614 0.02141805
0.02718167 -0.116371386 0.051014632 -0.010048002 -0.07933381 -0.12558551 -0.019506477 0.054430246
-0.009189263 -0.11620131 -0.13535243 -0.06263455 0.08268337 0.022142053 0.11022098 0.11350109
0.0056715906 -0.11916138 0.06406063 0.048303097 -0.01954259 0.13396356 0.02188015 0.07640262
0.1206142 0.047186047 0.013643399 0.07949634 -0.1041811 -0.0018548965 -0.02498591 -0.10065326
0.022311077 0.06054537 -0.11842857 0.08988534 -0.05443935 0.09014624 0.07394028 -0.057457224
-0.07262666 0.029841453 -0.123761356 0.10705815 0.012770399 0.10983363 -0.01730673 -0.12253596
-0.0447853 0.090102404 0.07952939 0.06142071 -0.13315937 0.026515692 -0.12209192 -0.052703395
0.109922886 0.030477762 0.12495592 -0.097503714 -0.0601511 0.034925595 0.12286091 0.014086261
0.059650987 -0.0132627785 -0.10242659 -0.07674155 0.06604667 0.013428882 0.11121188 -0.052530453
-0.024018422 0.020919457 0.06950168 -0.058073983 -0.095219515 0.00551939 -0.0314679 -0.08872302
0.058851957 0.09797388 0.031027332 0.0013934374 0.009711832 -0.08074136 -0.08358693 -0.026700154
-0.36983535 0.004895285 0.01943843 -0.12772521 0.03946437 0.015311301 0.03755848 0.044085592
0.08832657 -0.028688982 -0.13141313 0.020782366 -0.04455635 -0.132567 -0.05291997 0.023706019
-0.083145395 -0.006724268 0.109767705 -0.036830872 0.06456533 0.05723238 -0.0011197925 0.07633206
-0.05902256 -0.05859501 0.07449427 0.08963314 0.12349951 0.11341666 -0.03760518 0.00891988
0.005564183 0.038654193 -0.013093658 0.13604844 0.03477274 -0.12350177 -0.1283448 0.042606294

l1.bias f4 [8]
00000000: a337 8c3e 6795 b23e 12ed 81bb 3202 3ebb
00000010: 7c26 b63e 3077 923e 77a0 40ba 613a d23e
0.27386197 0.3487961 -0.0039650286 -0.0028993008 0.35576236 0.28606558 -0.000734813 0.41060165

l2.weight f4 [8, 8]
00000000: 35e2 e03d d7fa a3be 001a 6b3d d23a 0dbe
00000010: 1a5a c9bd 4868 62be 7fc4 753f 0404 353f
00000020: 98c9 59bd 7c0a 993d 9e62 4abe 3916 2cbe
00000030: 7c31 2bbe 7371 8e3e c1d9 a1be 80d7 973b
00000040: 58a5 ccbd b0dc 503d fa49 a1be 8653 a6be
00000050: 25d5 a13e 6058 7fbe 28c3 57bd 3145 29be
00000060: d1b8 99be 313b f6be 4215 b03e 0d44 9d3d
00000070: 65f9 c6be 2e21 d0be 7de7 953f e289 803e
00000080: 2d7a 133f 1323 ef3e 5c31 8ebe 7e99 babd
00000090: 82dd bd3e 9768 3c3e af16 10bf 5c74 b83e
000000a0: d0d2 ccbc a862 1ebd 181f fc3d 4c58 8cbd
000000b0: 62b5 293e 6051 0ebc 4dfb a7be 759e b2be
000000c0: 624b 43bd caa6 a1be 580f f7bd 5cf4 48be
000000d0: e5d1 a13e e2a6 f2bc 5bc2 17be 1871 023e
000000e0: a520 57be 2517 363d df74 75be 3993 14be
000000f0: 25e3 35bd cedb b6be 2ee4 b83f d0af 313f
0.109806456 -0.32027313 0.057397842 -0.1379197 -0.09831639 -0.22110093 0.96002954 0.7070925
-0.05317077 0.07472703 -0.19764182 -0.16805352 -0.16718096 0.2782093 -0.31611446 0.004633844
-0.09992474 0.050991714 -0.31501752 -0.32485598 0.3160793 -0.24936056 -0.05267635 -0.165303
-0.30023816 -0.48092034 0.34391218 0.07678995 -0.38862148 -0.40650314 1.171127 0.25105196
0.576083 0.46706447 -0.27772033 -0.091113076 0.3708306 0.18399273 -0.5628461 0.36026275
-0.025002867 -0.038668305 0.12310618 -0.06852779 0.16573098 -0.0086863935 -0.32808915 -0.34886518
-0.047679313 -0.31572562 -0.120634735 -0.19624466 0.3160545 -0.029620592 -0.14820234 0.12738454
-0.21008547 0.044455666 -0.23970364 -0.14509286 -0.044406075 -0.35714573 1.4444635 0.69408894

l2.bias f4 [8]
00000000: 5e07 02be 561d 24be ea20 88be 7150 cc3e
00000010: aadb 1c3e 09c3 81be a268 6bbd 46d5 ec3e
-0.12698123 -0.16026816 -0.2658761 0.39905122 0.1531817 -0.25344113 -0.057472833 0.46256465

l3.weight f4 [7, 8]
00000000: 2b68 33bf 7587 86be b022 ec3d 3259 013e
00000010: f7db 2ebe 548f 29be 85b4 c0bd 0718 dc3d
00000020: 56a2 cfbe 0693 5d3e b0f8 80bd 17db 8cbe
00000030: 82ae 833d 224e f1bd 07f0 e5bd f219 08be
00000040: ae18 12bf a5c2 2ebe 385f 02be ac91 35be
00000050: f717 5fbe 2199 9f3e a40a 42be 19aa 673e
00000060: 8d1f 38bf b839 8b3d b8e8 923d 9b8c 2d3e
00000070: 8d4e b43e 1e7e 393e 88cb 2ebe 4667 f13d
00000080: 4834 c6be 5d51 04be a8ff 2c3d 020b 6c3d
00000090: 1413 1a3e ba58 96be cce6 ad3d b839 cfbe
000000a0: dd0a e3be 7aa6 7f3e 365f 3cbe f883 95be
000000b0: 34fb 95bd 47a4 25be a751 72be 674c 753e
000000c0: 78aa a03f 470c 26be c887 5b3d 369d 5d3f
000000d0: b8a7 66bf 8007 d43d 43f2 65be 3d97 393f
-0.7008082 -0.2627522 0.115300536 0.12631682 -0.17076097 -0.16558582 -0.09409431 0.1074677
-0.4055354 0.21638116 -0.062974334 -0.27510902 0.06429769 -0.11782481 -0.11227422 -0.13291147
-0.5706891 -0.17066438 -0.12731636 -0.1773135 -0.21786486 0.31171516 -0.18949372 0.22623481
-0.7192314 0.06798118 0.07173294 0.16948168 0.3521618 0.18114516 -0.17069829 0.11787276
-0.38711762 -0.12921663 0.042236 0.057627685 0.1504634 -0.29364568 0.08491287 -0.40473723
-0.44344226 0.2496585 -0.18395695 -0.29202247 -0.07323304 -0.16175948 -0.2366396 0.23954926
1.2552023 -0.16215621 0.053596288 0.8656801 -0.9009967 0.10352993 -0.22455697 0.72496396

l3.bias f4 [7]
00000000: 7b10 cf3d 74e4 9cbc b7d7 be3d 163f 993e
00000010: 30d9 b23d 8edb 2d3e c1b0 26bd
0.10110565 -0.019151904 0.09318488 0.29930943 0.087328315 0.16978285 -0.04069591
